Layer name, IFMAP Height, IFMAP Width, Filter Height, Filter Width, Channels, Num Filter, Strides, Type, IFMAP Base Addr(Absolute), Filter Base Addr(Absolute), Ofmap Base Addr(Absolute),
CB4a_1,28,28,1,1,512,256,2,Conv,0,0,532480,
CB4a_2,14,14,3,3,256,256,1,Conv,532480,532480,590080,
CB4a_3,14,14,1,1,256,1024,1,Conv,590080,590080,1122304,
CB4s,28,28,1,1,512,1024,2,Conv,0,0,1323008,
IB4b_1,14,14,1,1,1024,256,1,Conv,1323008,1323008,1553408,
IB4b_2,14,14,3,3,256,256,1,Conv,1553408,1553408,1603584,

